…
inputFs: 48000.0
fs: 16000.0
numFeatures: 129
numSegments: 8
Model: "model"
__________________________________________________________________________________________________
Layer (type)                    Output Shape         Param #     Connected to                     
==================================================================================================
input_1 (InputLayer)            [(None, 129, 8, 1)]  0                                            
__________________________________________________________________________________________________
zero_padding2d (ZeroPadding2D)  (None, 137, 8, 1)    0           input_1[0][0]                    
__________________________________________________________________________________________________
conv2d (Conv2D)                 (None, 129, 1, 18)   1296        zero_padding2d[0][0]             
__________________________________________________________________________________________________
activation (Activation)         (None, 129, 1, 18)   0           conv2d[0][0]                     
__________________________________________________________________________________________________
batch_normalization (BatchNorma (None, 129, 1, 18)   72          activation[0][0]                 
__________________________________________________________________________________________________
conv2d_1 (Conv2D)               (None, 129, 1, 30)   2700        batch_normalization[0][0]        
__________________________________________________________________________________________________
activation_1 (Activation)       (None, 129, 1, 30)   0           conv2d_1[0][0]                   
__________________________________________________________________________________________________
batch_normalization_1 (BatchNor (None, 129, 1, 30)   120         activation_1[0][0]               
__________________________________________________________________________________________________
conv2d_2 (Conv2D)               (None, 129, 1, 8)    2160        batch_normalization_1[0][0]      
__________________________________________________________________________________________________
activation_2 (Activation)       (None, 129, 1, 8)    0           conv2d_2[0][0]                   
__________________________________________________________________________________________________
batch_normalization_2 (BatchNor (None, 129, 1, 8)    32          activation_2[0][0]               
__________________________________________________________________________________________________
conv2d_3 (Conv2D)               (None, 129, 1, 18)   1296        batch_normalization_2[0][0]      
__________________________________________________________________________________________________
activation_3 (Activation)       (None, 129, 1, 18)   0           conv2d_3[0][0]                   
__________________________________________________________________________________________________
batch_normalization_3 (BatchNor (None, 129, 1, 18)   72          activation_3[0][0]               
__________________________________________________________________________________________________
conv2d_4 (Conv2D)               (None, 129, 1, 30)   2700        batch_normalization_3[0][0]      
__________________________________________________________________________________________________
activation_4 (Activation)       (None, 129, 1, 30)   0           conv2d_4[0][0]                   
__________________________________________________________________________________________________
batch_normalization_4 (BatchNor (None, 129, 1, 30)   120         activation_4[0][0]               
__________________________________________________________________________________________________
conv2d_5 (Conv2D)               (None, 129, 1, 8)    2160        batch_normalization_4[0][0]      
__________________________________________________________________________________________________
activation_5 (Activation)       (None, 129, 1, 8)    0           conv2d_5[0][0]                   
__________________________________________________________________________________________________
batch_normalization_5 (BatchNor (None, 129, 1, 8)    32          activation_5[0][0]               
__________________________________________________________________________________________________
conv2d_6 (Conv2D)               (None, 129, 1, 18)   1296        batch_normalization_5[0][0]      
__________________________________________________________________________________________________
activation_6 (Activation)       (None, 129, 1, 18)   0           conv2d_6[0][0]                   
__________________________________________________________________________________________________
batch_normalization_6 (BatchNor (None, 129, 1, 18)   72          activation_6[0][0]               
__________________________________________________________________________________________________
conv2d_7 (Conv2D)               (None, 129, 1, 30)   2700        batch_normalization_6[0][0]      
__________________________________________________________________________________________________
activation_7 (Activation)       (None, 129, 1, 30)   0           conv2d_7[0][0]                   
__________________________________________________________________________________________________
batch_normalization_7 (BatchNor (None, 129, 1, 30)   120         activation_7[0][0]               
__________________________________________________________________________________________________
conv2d_8 (Conv2D)               (None, 129, 1, 8)    2160        batch_normalization_7[0][0]      
__________________________________________________________________________________________________
activation_8 (Activation)       (None, 129, 1, 8)    0           conv2d_8[0][0]                   
__________________________________________________________________________________________________
batch_normalization_8 (BatchNor (None, 129, 1, 8)    32          activation_8[0][0]               
__________________________________________________________________________________________________
conv2d_9 (Conv2D)               (None, 129, 1, 18)   1296        batch_normalization_8[0][0]      
__________________________________________________________________________________________________
activation_9 (Activation)       (None, 129, 1, 18)   0           conv2d_9[0][0]                   
__________________________________________________________________________________________________
batch_normalization_9 (BatchNor (None, 129, 1, 18)   72          activation_9[0][0]               
__________________________________________________________________________________________________
conv2d_10 (Conv2D)              (None, 129, 1, 30)   2700        batch_normalization_9[0][0]      
__________________________________________________________________________________________________
tf_op_layer_AddV2 (TensorFlowOp [(None, 129, 1, 30)] 0           conv2d_10[0][0]                  
                                                                 conv2d_4[0][0]                   
__________________________________________________________________________________________________
activation_10 (Activation)      (None, 129, 1, 30)   0           tf_op_layer_AddV2[0][0]          
__________________________________________________________________________________________________
batch_normalization_10 (BatchNo (None, 129, 1, 30)   120         activation_10[0][0]              
__________________________________________________________________________________________________
conv2d_11 (Conv2D)              (None, 129, 1, 8)    2160        batch_normalization_10[0][0]     
__________________________________________________________________________________________________
activation_11 (Activation)      (None, 129, 1, 8)    0           conv2d_11[0][0]                  
__________________________________________________________________________________________________
batch_normalization_11 (BatchNo (None, 129, 1, 8)    32          activation_11[0][0]              
__________________________________________________________________________________________________
conv2d_12 (Conv2D)              (None, 129, 1, 18)   1296        batch_normalization_11[0][0]     
__________________________________________________________________________________________________
activation_12 (Activation)      (None, 129, 1, 18)   0           conv2d_12[0][0]                  
__________________________________________________________________________________________________
batch_normalization_12 (BatchNo (None, 129, 1, 18)   72          activation_12[0][0]              
__________________________________________________________________________________________________
conv2d_13 (Conv2D)              (None, 129, 1, 30)   2700        batch_normalization_12[0][0]     
__________________________________________________________________________________________________
tf_op_layer_AddV2_1 (TensorFlow [(None, 129, 1, 30)] 0           conv2d_13[0][0]                  
                                                                 conv2d_1[0][0]                   
__________________________________________________________________________________________________
activation_13 (Activation)      (None, 129, 1, 30)   0           tf_op_layer_AddV2_1[0][0]        
__________________________________________________________________________________________________
batch_normalization_13 (BatchNo (None, 129, 1, 30)   120         activation_13[0][0]              
__________________________________________________________________________________________________
conv2d_14 (Conv2D)              (None, 129, 1, 8)    2160        batch_normalization_13[0][0]     
__________________________________________________________________________________________________
activation_14 (Activation)      (None, 129, 1, 8)    0           conv2d_14[0][0]                  
__________________________________________________________________________________________________
batch_normalization_14 (BatchNo (None, 129, 1, 8)    32          activation_14[0][0]              
__________________________________________________________________________________________________
spatial_dropout2d (SpatialDropo (None, 129, 1, 8)    0           batch_normalization_14[0][0]     
__________________________________________________________________________________________________
conv2d_15 (Conv2D)              (None, 129, 1, 1)    1033        spatial_dropout2d[0][0]          
==================================================================================================
Total params: 32,933
Trainable params: 32,373
Non-trainable params: 560
__________________________________________________________________________________________________
Epoch 1/9999
600/600 - 28s - loss: 0.3887 - rmse: 0.6235 - val_loss: 0.2673 - val_rmse: 0.5170
…
